src/best_model.pth (torch, 459299 bytes, 24 tensors)

embedder.0.0.weight f4 [64, 1, 3, 3]
0.14389291 -0.2608432 0.031197991 0.08301226 -0.3784277 0.20463397 -0.053983577 0.11467113
0.017286979 -0.03460223 0.122057036 0.018363856 0.10972128 -0.1705534 -0.06421683 -0.06727676
0.042754404 0.021080792 0.19717617 0.015324549 -0.07430421 -0.23800218 -0.19501089 -0.19166934
-0.033147655 -0.01992319 0.25312588 0.14062631 -0.2185946 0.08176262 0.069810346 0.3437936
0.09513981 -0.31441268 -0.49310794 -0.2460665 0.07942843 -0.11889649 0.0935857 -0.15441647
0.37905705 -0.26959276 0.19471663 0.0014743994 -0.27750117 0.0019466645 -0.059907693 0.073983
-0.24572094 -0.25057092 -0.30896947 -0.11940495 0.23293313 -0.044765104 0.29133904 0.31947082
-0.03209808 -0.220249 0.19136915 0.06894093 -0.15780227 0.23948759 0.287844 0.19156876
-0.23909353 -0.10056496 -0.00041290003 0.08125938 -0.3164289 -0.34624833 0.14313701 -0.032829653
0.028241994 0.020719988 -0.041816283 0.08287239 0.03721065 0.09909197 -0.3714685 0.18294694
-0.33122146 -0.35856542 -0.11843009 -7.568758e-05 0.14305548 -0.20699045 -0.20163304 0.18221596
-0.17776085 0.15381733 0.060801867 -0.24338107 0.20817025 0.029677076 -0.27821115 -0.14932829
0.09994149 -0.03301993 -0.06906078 -0.05889535 0.2863898 -0.20911074 0.08285416 0.07201135
-0.34214115 -0.25254002 0.26078555 -0.16980286 0.3212569 -0.014892044 0.16998099 0.2416023
0.16553675 -0.19605628 0.03736464 0.28039938 0.28739047 -0.003998844 -0.33807346 -0.37084687
-0.21162872 -0.03116775 0.28223848 -0.19370465 0.19893324 -0.14396918 -0.21805009 -0.046387415
0.21174236 0.40517184 -0.2840016 0.040680096 0.14143635 0.32068253 0.080769844 0.089791186
0.23395078 0.12503827 -0.28781775 -0.3397648 -0.21660973 -0.015964285 -0.1492039 0.068403915
0.1357211 0.045502104 0.1652788 0.17185839 0.12159068 0.23940584 0.02266403 0.3432787
-0.023210835 0.055897646 -0.35106626 -0.17858872 -0.058601648 -0.37423128 0.24822088 0.007646242
-0.19942287 0.07627609 0.0870174 0.1770568 -0.15013306 0.15519224 -0.076699324 -0.1373598
-0.2854025 -0.22575915 -0.09014122 0.2059963 0.06884638 0.16204304 0.32033902 0.18740478
0.20715871 0.12837672 -0.25788426 0.2848577 -0.08056537 -0.22225763 -0.19940113 0.069126554
-0.29646644 0.33617058 -0.0468028 -0.17503713 -0.13443394 -0.18365641 0.041505255 -0.08606267
-0.3219702 0.0259791 0.12670512 -0.363341 0.15206309 0.11685965 0.29705074 -0.28097063
0.050363034 -0.2858163 0.28528398 -0.13797225 0.15754187 -0.06288069 0.067427345 0.0778055
0.06730173 0.19459839 -0.035312798 0.020092623 -0.44442838 0.09717754 0.15565068 0.27642506
0.032819737 -0.22308354 -0.08746509 0.3419158 -0.46239278 0.19487394 -0.21705548 -0.3317633
0.004371973 -0.30836016 -0.06880359 0.16214906 0.2741141 0.15296754 -0.093467526 -0.39078602
0.3005386 -0.14939368 -0.15374984 0.05651741 -0.2954565 0.118814774 0.26304415 -0.13602252
-0.40723377 -0.05931746 0.06830545 0.015443756 -0.03898238 0.006360794 -0.3343621 -0.36546415
-0.27084187 0.14287491 0.32829985 -0.07740666 -0.064291045 0.1314815 0.121242955 -0.22737342
00000000: aa58 133e 3d8d 85be ee92 ff3c 5502 aa3d
00000010: 47c1 c1be 918b 513e e21d 5dbd b3d8 ea3d
00000020: 6c9d 8d3c 11bb 0dbd 0af9 f93d cc6f 963c
00000030: 8db5 e03d 8da5 2ebe 1d84 83bd 66c8 89bd
00000040: 3e1f 2f3d a0b1 ac3c 8de8 493e d113 7b3c
00000050: ce2c 98bd d8b6 73be efb0 47be f844 44be
00000060: d6c5 07bd f535 a3bc b799 813e 5800 103e
00000070: 43d7 5fbe 2973 a73d baf8 8e3d b705 b03e
00000080: a9d8 c23d b3fa a0be a578 fcbe dbf8 7bbe
00000090: 5fab a23d 0180 f3bd dca9 bf3d 5a1f 1ebe
000000a0: c413 c23e 1008 8abe cc63 473e a240 c13a
000000b0: a214 8ebe 3927 ff3a c561 75bd 6684 973d
000000c0: 459e 7bbe d54a 80be 3f31 9ebe 958a f4bd
000000d0: 0686 6e3e 9d5b 37bd 642a 953e ae91 a33e
000000e0: 4779 03bd f488 61be 46f6 433e e730 8d3d
000000f0: eb96 21be 3c3c 753e 4a60 933e 9a2a 443e
00000100: efd4 74be 00f5 cdbd 817a d8b9 516b a63d
00000110: f802 a2be 7647 b1be 8292 123e 6378 06bd
00000120: c15b e73c f7bc a93c 8d47 2bbd 00b9 a93d
00000130: 326a 183d bbf0 ca3d 1f31 bebe 7156 3b3e
00000140: dc95 a9be e395 b7be 7a8b f2bd 76ba 9eb8
00000150: 237d 123e 4ef5 53be e478 4ebe d296 3a3e
00000160: f106 36be 4a82 1d3e 610b 793d e338 79be
00000170: 952a 553e 571d f33c b171 8ebe 84e9 18be
00000180: 20ae cc3d e83f 07bd bd6f 8dbd 403c 71bd
00000190: afa1 923e 2021 56be 71af a93d b07a 933d
000001a0: 202d afbe ed4c 81be af85 853e cde0 2dbe
000001b0: c97b a43e c2fd 73bc 7f0f 2e3e 9866 773e
000001c0: 7782 293e fac2 48be aa0b 193d 8290 8f3e
000001d0: d824 933e bc08 83bb f717 adbe a4df bdbe
000001e0: 33b5 58be 8253 ffbc 9081 903e 835a 46be
000001f0: 28b5 4b3e a86c 13be 8648 5fbe bb00 3ebd
00000200: fdd2 583e af72 cf3e a868 91be 2ca0 263d
00000210: b1d4 103e 8030 a43e a96a a53d 71e4 b73d
00000220: cb90 6f3e 080a 003e d95c 93be a7f5 adbe
00000230: f1ce 5dbe 88c7 82bc e8c8 18be 5a17 8c3d
00000240: 79fa 0a3e 6a60 3a3d d93e 293e a5fb 2f3e
00000250: 8904 f93d ce26 753e eaa9 b93c 3ac2 af3e
00000260: a624 bebc eef4 643d f5be b3be f6df 36be
00000270: 4808 70bd 3e9b bfbe 9d2d 7e3e 548d fa3b
00000280: 8235 4cbe a436 9c3d 2e36 b23d 614e 353e
00000290: 7bbc 19be b7ea 1e3e 8914 9dbd 0ca8 0cbe
000002a0: 4720 92be 682d 67be f69b b8bd b2f0 523e
000002b0: 55ff 8c3d 9cee 253e 7a03 a43e 0ae7 3f3e
000002c0: 6a21 543e 3075 033e 6809 84be ded8 913e
000002d0: 75ff a4bd 8197 63be cf2f 4cbe 3992 8d3d
000002e0: 73ca 97be 8d1e ac3e 4bb4 3fbd ef3c 33be
000002f0: 0da9 09be 6d10 3cbe 6a01 2a3d a041 b0bd
00000300: 47d9 a4be 1fd2 d43c fdbe 013e d507 babe
00000310: 6db6 1b3e 1d54 ef3d 0917 983e 62db 8fbe
00000320: 7849 4e3d 8456 92be be10 923e 9948 0dbe
00000330: a852 213e 97c7 80bd 5917 8a3d 7d58 9f3d
00000340: 7dd5 893d cd44 473e 27a4 10bd 4999 a43c
00000350: 1e8c e3be 0505 c73d e462 1f3e 9687 8d3e
00000360: fd6d 063d 0370 64be e620 b3bd 960f af3e
00000370: bfbe ecbe 098d 473e cb43 5ebe e1dc a9be
00000380: c542 8f3b 62e1 9dbe e6e8 8cbd 670a 263e
00000390: af58 8c3e 86a3 1c3e e76b bfbd 1b15 c8be
000003a0: 32e0 993e a8fa 18be 9970 1dbe cd7e 673d
000003b0: 1346 97be 2955 f33d b9ad 863e 7d49 0bbe
000003c0: f280 d0be ddf6 72bd bae3 8b3d cf07 7d3c
000003d0: fdab 1fbd 356e d03b 8231 abbe 1e1e bbbe
000003e0: c9ab 8abe cd4d 123e eb16 a83e 6287 9ebd
000003f0: 06ab 83bd 16a3 063e 3a4e f83d 94d4 68be

embedder.0.0.bias f4 [64]
0.08934964 -0.11729418 0.06660497 -0.0890441 0.27750313 -0.020884123 -0.090489216 0.34635037
0.14986317 -0.22734216 -0.13710697 0.25619268 0.1699788 0.2773149 -0.0355186 0.29111296
0.1407079 0.07844447 -0.010761341 0.3480503 0.15662007 -0.13835895 -0.025411358 0.32117146
0.11413768 -0.008125162 0.37322617 0.19169785 -0.17877254 -0.26242855 0.0916164 0.28627756
-0.24719156 0.11948065 0.07100747 -0.033886127 -0.031587612 0.13609415 0.10694985 0.13494565
0.17708889 0.18882044 0.30853814 0.09236969 -0.027278233 -0.09612886 0.1669975 -0.06385628
0.2208333 0.33695614 -0.10177595 0.2823381 -0.097047634 0.30258673 0.25222754 -0.11318725
-0.053165905 -0.19499004 -0.14630617 -0.12165717 0.04209214 -0.09680444 -0.31215736 -0.19701849
00000000: f2fc b63d ee37 f0bd 3068 883d c15c b6bd
00000010: e414 8e3e 2e15 abbc 6952 b9bd d654 b13e
00000020: bb75 193e 62cc 68be c565 0cbe b02b 833e
00000030: ec0e 2e3e 38fc 8d3e f47b 11bd c20c 953e
00000040: bb15 103e 7fa7 a03d 5650 30bc a633 b23e
00000050: 0361 203e f8ad 0dbe 7b2b d0bc 9670 a43e
00000060: 04c1 e93d 661f 05bc 8017 bf3e 714c 443e
00000070: 2610 37be 095d 86be 61a1 bb3d f992 923e
00000080: c91f 7dbe 45b2 f43d 5d6c 913d 2ecc 0abd
00000090: 0362 01bd 445c 0b3e 8608 db3d 312f 0a3e
000000a0: ca56 353e 255a 413e b6f8 9d3e 522c bd3d
000000b0: 9a76 dfbc 35df c4bd 6501 2b3e 15c7 82bd
000000c0: 2022 623e 8485 ac3e e96f d0bd 9f8e 903e
000000d0: e9c0 c6bd a6ec 9a3e f823 813e b8ce e7bd
000000e0: 7ec4 59bd 78ab 47be 49d1 15be 6527 f9bd
000000f0: cf68 2c3d 6841 c6bd 17d3 9fbe 37bf 49be

embedder.0.1.weight f4 [64]
0.9349218 0.8120836 0.9883044 1.0694387 0.82210726 1.4581993 0.6989549 0.96521205
0.9305879 1.0907365 1.120283 0.8839546 0.6666198 1.1806307 0.8358104 0.99186206
0.6950374 1.232492 1.1366395 0.7674034 1.266887 1.0507002 0.7613762 0.8414797
1.1272128 0.76199913 0.92709 1.0924203 0.77896124 0.7758887 1.1030178 0.8517575
1.1593279 1.4924848 0.96920025 0.97017115 0.96111614 1.4185271 1.215094 0.82898
1.0855631 0.9296046 0.9580657 0.88781536 0.7449356 1.2468636 0.882894 1.0087829
0.75240767 0.96748245 0.70196635 0.9443581 0.838493 0.8888101 0.71978855 1.3077921
1.2717459 1.2828927 1.0853245 0.87119466 1.2412755 0.92317486 1.3935385 1.2819073
00000000: 0957 6f3f b6e4 4f3f 8401 7d3f 5ee3 883f
00000010: 9f75 523f 46a6 ba3f b5ee 323f 2318 773f
00000020: 023b 6e3f 419d 8b3f 6f65 8f3f d94a 623f
00000030: 98a7 2a3f e81e 973f acf7 553f acea 7d3f
00000040: f9ed 313f 4cc2 9d3f 677d 913f 8d74 443f
00000050: 5a29 a23f 587d 863f 8de9 423f 376b 573f
00000060: 8248 903f 6012 433f c555 6d3f 6ed4 8b3f
00000070: 016a 473f a4a0 463f b02f 8d3f c80c 5a3f
00000080: db64 943f be09 bf3f 821d 783f 235d 783f
00000090: b50b 763f 4c92 b53f 3388 9b3f 0938 543f
000000a0: bbf3 8a3f 91fa 6d3f cb43 753f de47 633f
000000b0: 19b4 3e3f 3a99 9f3f 5705 623f cc1f 813f
000000c0: ca9d 403f eeac 773f 11b4 333f 74c1 713f
000000d0: 7aa7 563f 0f89 633f 1044 383f bb65 a73f
000000e0: 92c8 a23f d435 a43f eaeb 8a3f 9d06 5f3f
000000f0: 1ee2 9e3f 3055 6c3f 785f b23f 8a15 a43f

embedder.0.1.bias f4 [64]
-0.18533055 -0.33468437 -0.015039106 -0.009189764 -0.20062515 -0.18179296 -0.32624316 0.011685902
-0.24881521 0.022956137 -0.1465104 -0.15812476 -0.36966062 0.17813596 -0.2908139 0.09506001
-0.2893427 -0.21505967 -0.23824295 -0.30858496 -0.19473574 -0.14671226 -0.30045342 -0.24506646
-0.34284616 -0.379241 0.3022754 -0.038910396 -0.21125653 -0.28209004 -0.13400175 -0.2447192
-0.36052507 0.030107163 0.26490796 0.13562554 -0.16146739 -0.15663718 -0.26287058 -0.27265424
0.23998834 -0.12437256 -0.07204264 -0.1570842 -0.27207264 -0.24779968 0.0027169352 -0.07034323
-0.27047494 -0.23557231 -0.24838273 0.39430925 -0.27247554 -0.21459922 -0.2887131 -0.11466296
0.2049379 0.055544112 0.14982003 -0.26580903 -0.27783474 0.030011725 -0.07259855 -0.18287212
00000000: 4bc7 3dbe c05b abbe 9566 76bc aa90 16bc
00000010: ae70 4dbe ef27 3abe 5809 a7be 3a76 3f3c
00000020: 6ac9 7ebe 820e bc3c d306 16be 75eb 21be
00000030: 2844 bdbe 4669 363e 8fe5 94be d3ae c23d
00000040: ba24 94be 9a38 5cbe f6f5 73be d9fe 9dbe
00000050: ce68 47be bd3b 16be 08d5 99be b4f2 7abe
00000060: 8889 afbe e02b c2be d7c3 9a3e 8260 1fbd
00000070: a253 58be 1b6e 90be c137 09be ac97 7abe
00000080: be96 b8be 4ca3 f63c 04a2 873e 6ce1 0a3e
00000090: b557 25be 7f65 20be f996 86be 5699 8bbe
000000a0: 81bf 753e 0ab7 febd 178b 93bd aeda 20be
000000b0: 1b4d 8bbe 33bf 7dbe 9c0e 323b 1d10 90bd
000000c0: b17b 8abe de39 71be 0b58 7ebe e7e2 c93e
000000d0: ea81 8bbe e6bf 5bbe 34d2 93be 6ad4 eabd
000000e0: 3edb 513e 3982 633d 6c6a 193e 1f18 88be
000000f0: 5b40 8ebe 26db f53c 8cae 94bd d442 3bbe

embedder.0.1.running_mean f4 [64]
0.08153319 -0.11887526 0.04424387 -0.13127974 0.27184433 -0.07717693 -0.013444868 0.29813933
0.12699413 -0.27284363 -0.16632777 0.23059408 0.270612 0.21422139 0.015207008 0.25281122
0.2358881 0.018286841 -0.05336296 0.44985598 0.09816658 -0.17660284 -0.01836757 0.35305312
0.05590876 -0.017263861 0.33074832 0.14546944 -0.15737319 -0.2753462 0.050360844 0.2659391
-0.28353983 0.08066828 0.036404647 -0.07163631 -0.050876517 0.091521606 0.05860951 0.1413932
0.113376565 0.16292608 0.27385032 0.0689696 0.034659054 -0.14646469 0.13521972 -0.093117
0.22857441 0.3090457 -0.06030382 0.24419913 -0.09938484 0.27185628 0.25452048 -0.18322451
-0.10449897 -0.25228795 -0.17930639 -0.12244005 -0.01470209 -0.13056698 -0.36405867 -0.25819975
00000000: e0fa a63d df74 f3bd 0f39 353d 326e 06be
00000010: 2e2f 8b3e f00e 9ebd dd47 5cbc b8a5 983e
00000020: c00a 023e 29b2 8bbe d451 2abe db20 6c3e
00000030: a88d 8a3e da5c 5b3e d126 793c 7970 813e
00000040: a68c 713e 49ce 953c 1f93 5abd 8653 e63e
00000050: 8f0b c93d 60d7 34be 9677 96bc 61c3 b43e
00000060: 9500 653d f16c 8dbc d857 a93e f1f5 143e
00000070: 7026 21be 2dfa 8cbe 2c47 4e3d 2b29 883e
00000080: 222c 91be 6935 a53d 0a1d 153d 0fb6 92bd
00000090: e563 50bd ae6f bb3d 8710 703d 61c9 103e
000000a0: f931 e83d 18d6 263e 1c36 8c3e ef3f 8d3d
000000b0: a7f6 0d3d d7fa 15be 0a77 0a3e 20b4 bebd
000000c0: 690f 6a3e 3d3b 9e3e 2301 77bd 560f 7a3e
000000d0: 478a cbbd bf30 8b3e 8250 823e 359f 3bbe
000000e0: 8e03 d6bd e32b 81be 189c 37be d9c1 fabd
000000f0: 09e1 70bc 5ab3 05be e665 babe c232 84be

embedder.0.1.running_var f4 [64]
0.011189891 0.0015454682 0.013811469 0.038215484 0.0127590215 0.027558222 0.046335246 0.020139353
0.011809888 0.024290746 0.015401175 0.021306809 0.055977855 0.032733407 0.025282279 0.028089771
0.04891051 0.037757564 0.022000516 0.059199773 0.027684838 0.028875412 0.005565077 0.015373791
0.041164048 0.01464603 0.01987121 0.033514462 0.02185447 0.012413729 0.022482647 0.012391804
0.014798588 0.013090738 0.01595531 0.015399071 0.024843032 0.017330246 0.03086969 0.016399417
0.034914058 0.019713337 0.016716497 0.013773811 0.038013518 0.029103309 0.023221096 0.019120434
0.013170829 0.029427027 0.042300116 0.020918632 0.02535683 0.01865389 0.012022555 0.049332883
0.018050583 0.042978987 0.010710165 0.012666625 0.0297998 0.031370424 0.023292469 0.02589838
00000000: ce55 373c 4f91 ca3a 8049 623c d787 1c3d
00000010: 370b 513c c8c1 e13c 07ca 3d3d 49fb a43c
00000020: 437e 413c 63fd c63c 3655 7c3c 9e8b ae3c
00000030: 0949 653d 7713 063d c81c cf3c 851c e63c
00000040: 6356 483d ada7 1a3d 6d3a b43c 767b 723d
00000050: 50cb e23c 218c ec3c 405b b63b 5ae2 7b3c
00000060: a29b 283d e7f5 6f3c f3c8 a23c 7646 093d
00000070: 2508 b33c f462 4b3c 872d b83c fe06 4b3c
00000080: c775 723c 897a 563c b6b4 823c 634c 7c3c
00000090: 9d83 cb3c 29f8 8d3c 6fe2 fc3c 1258 863c
000000a0: 0b02 0f3d dd7d a13c 09f1 883c 8dab 613c
000000b0: 10b4 1b3d 106a ee3c 2b3a be3c 75a2 9c3c
000000c0: 76ca 573c f310 f13c e342 2d3d 8d5d ab3c
000000d0: 20b9 cf3c 0bd0 983c 40fa 443c 4711 4a3d
000000e0: d1de 933c bc0a 303d b079 2f3c ad87 4f3c
000000f0: b61e f43c 467e 003d d9cf be3c d728 d43c

embedder.1.0.weight f4 [64, 64, 3, 3]
-0.01234919 -0.070809245 -0.031318888 0.027449505 0.06274937 -0.04003351 -0.028396055 0.0205677
-0.08763295 -0.0569578 -0.053909864 -0.023756685 -0.055982415 -0.0121011995 -0.0185249 -0.01711289
0.020719372 0.061556995 -0.009816238 0.039268658 -0.014248352 0.07531074 0.026056165 -0.017882159
0.012498318 -0.028432047 0.035183318 -0.00018399663 0.030299565 0.004109878 0.0015556528 0.028244467
0.03977661 0.06336911 0.073595256 -0.016006375 -0.03830021 -0.05282991 -0.0579445 -0.038599014
0.05050141 0.03940464 -0.07974046 -0.0171288 -0.035415236 -0.09963978 0.050606977 0.15495594
0.064897336 0.016134083 0.0071269986 -0.08849066 0.028530372 0.07079829 -0.017282046 -0.102588244
-0.036545683 -0.03600423 0.007970355 -0.06526179 -0.05333749 -0.087338 -0.05716998 0.015128813
-0.04000728 0.08652678 -0.0019529074 0.077041335 0.051475197 0.00063917204 -0.06375635 0.062672414
0.0027732395 -0.06080988 -0.021788673 -0.013853293 -0.022628145 0.038207058 0.009756622 -0.09106659
-0.037805118 -0.040331427 0.030149993 -0.015929734 0.03852641 0.08433272 0.044898283 0.022436742
-0.10171956 -0.103060625 0.029658793 0.021814806 -0.12980694 -0.05227115 -0.10530572 -0.011850448
0.018704362 -0.093709886 0.08655334 -0.07517699 -0.10395111 -0.044766787 -0.008121917 0.0037389677
-0.07514695 0.019926693 0.018308252 -6.4440785e-05 0.008938942 -0.030065821 -0.020703815 -0.009423433
-0.007160113 -0.08417078 -0.026983224 0.0015319629 -0.030104011 0.00052667933 -0.0074393223 -0.012558213
-0.056846764 0.028590035 0.10066806 -0.014631132 0.053042375 0.008623958 -0.064523235 -0.027290167
-0.03945433 -0.00970976 0.0154558355 0.022858538 0.0031935563 -0.021936782 -0.074194066 0.022521717
0.03645858 0.0523667 0.0066237026 0.021704903 0.08171833 -0.025381574 0.05355543 0.07107289
-0.06265732 -0.06984911 -0.07715597 -0.040781423 0.05736026 0.021732502 -0.043789025 -0.01042313
-0.066452436 -0.051295068 0.031742323 0.040029258 0.10169597 0.042527366 0.012823718 0.04460803
0.060075056 0.030723039 0.037023723 0.058972754 0.10259866 0.09425553 0.18244526 0.12388709
-0.005340491 0.070993826 0.08695371 -0.051545218 -0.030182827 -0.03930496 -0.037558876 0.017037287
0.03347901 0.03393158 0.010804264 -0.034621667 0.0017871641 0.04679364 -0.011103078 -0.046654172
-0.020483423 -0.002806431 0.046087936 0.02529456 -0.07627524 -0.08257355 -0.02695289 0.0056635905
0.060316198 -0.007517319 0.0287903 -0.013344709 -0.019665726 -0.13927989 0.007271365 -0.006627241
-0.044130478 -0.09312602 -0.055844728 -0.024491793 -0.050096318 -0.0857618 -0.026018338 -0.025714595
0.010308811 0.026427772 -0.04819562 -0.01777607 -0.008982122 0.008284919 -0.04647829 -0.12582643
-0.063126944 -0.076487474 -0.039923288 -0.036079966 0.038945097 0.060687225 0.022346193 0.021709701
0.022983525 -0.049041115 -0.029481374 -0.03872339 -0.0312717 0.043972366 -0.02746877 0.04883651
0.006141976 -0.048269164 -0.07318678 -0.012661848 -0.032252803 -0.057985686 -0.11753106 -0.007148345
-0.0129345665 -0.050348807 -0.051150743 -0.0009475964 0.048061833 0.044828538 0.016404402 0.031339865
0.062470164 -0.016836176 0.06973904 -0.117136896 -0.020454537 -0.0335368 -0.043480575 -0.031023517
00000000: 4254 4abc 7004 91bd 3c48 00bd c9dd e03c
00000010: be82 803d 2efa 23bd d89e e8bc 987d a83c
00000020: e778 b3bd 954c 69bd 97d0 5cbd 619d c2bc
00000030: d14d 65bd 1c44 46bc 88c1 97bc 5530 8cbc
00000040: acbb a93c 3023 7c3d 49d4 20bc 2cd8 203d
00000050: eb71 69bc 843c 9a3d bd73 d53c 9b7d 92bc
00000060: bfc5 4c3c 53ea e8bc 621c 103d 38ef 40b9
00000070: cb36 f83c 28ac 863b 0ce7 cb3a f160 e73c
00000080: ccec 223d aac7 813d 1cb9 963d cd1f 83bc
00000090: aee0 1cbd 2d64 58bd 3657 6dbd 001a 1ebd
000000a0: 91da 4e3d c366 213d f74e a3bd b251 8cbc
000000b0: 910f 11bd f10f ccbd 4349 4f3d c5ac 1e3e
000000c0: e5e8 843d a02b 843c 9989 e93b 973a b5bd
000000d0: 87b8 e93c b2fe 903d 1493 8dbc c919 d2bd
000000e0: edb0 15bd 2c79 13bd 1896 023c f9a7 85bd
000000f0: 6978 5abd 44de b2bd 122b 6abd d7de 773c
00000100: acde 23bd f434 b13d b3f8 ffba d9c7 9d3d
00000110: a8d7 523d 1c8e 273a b092 82bd 655a 803d
00000120: 3dbf 353b c813 79bd 297e b2bc ecf8 62bc
00000130: a95e b9bc 017f 1c3d 3dda 1f3c 1f81 babd
00000140: 8ad9 1abd 9132 25bd 1efd f63c 137f 82bc
00000150: decd 1d3d a2b6 ac3d 43e7 373d 42cd b73c
00000160: 5852 d0bd 7311 d3bd fff6 f23c f7b4 b23c
00000170: 1cec 04be 461a 56bd 86aa d7bd 6228 42bc
00000180: e439 993c f8ea bfbd e142 b13d 65f6 99bd
00000190: 52e4 d4bd 615d 37bd ca11 05bc 7809 753b
000001a0: a5e6 99bd 4e3d a33c 30fb 953c 6224 87b8
000001b0: a474 123c 994c f6bc 0c9b a9bc be64 1abc
000001c0: 629f eabb bb61 acbd ec0b ddbc 25cc c83a
000001d0: b09c f6bc da10 0a3a 8fc5 f3bb f7c0 4dbc
000001e0: 27d8 68bd a635 ea3c 0e2b ce3d 6ab7 6fbc
000001f0: f642 593d 804b 0d3c c224 84bd a18f dfbc
00000200: dd9a 21bd af15 1fbc 793a 7d3c d441 bb3c
00000210: fc4a 513b c4b4 b3bc 0ff3 97bd 777f b83c
00000220: 9855 153d 777e 563d a50b d93b 7bce b13c
00000230: f15b a73d 05ed cfbc f05c 5b3d aa8e 913d
00000240: 7b52 80bd 0d0d 8fbd f303 9ebd 6c0a 27bd
00000250: 98f2 6a3d 5c08 b23c 1f5c 33bd c7c5 2abc
00000260: 3718 88bd c71a 52bd 3d04 023d b8f5 233d
00000270: fa45 d03d 2d31 2e3d 921a 523c e9b6 363d
00000280: 4311 763d e2ae fb3c 30a6 173d 6a8d 713d
00000290: 3f1f d23d 0b09 c13d eed2 3a3e 84b8 fd3d
000002a0: 49ff aebb 3665 913d c914 b23d 1421 53bd
000002b0: fa41 f7bc 3dfe 20bd 56d7 19bd c891 8b3c
000002c0: 4921 093d d7fb 0a3d 5e04 313c 73cf 0dbd
000002d0: 473f ea3a b0aa 3f3d afe9 35bc 7218 3fbd
000002e0: dacc a7bc 19ec 37bb b4c6 3c3d 8936 cf3c
000002f0: 3136 9cbd 521c a9bd 4fcc dcbc a495 b93b
00000300: 1e0e 773d d853 f6bb a3d9 eb3c c4a3 5abc
00000310: 041a a1bc 639f 0ebe a144 ee3b 5429 d9bb
00000320: 29c2 34bd dbb8 bebd 71bd 64bd 03a3 c8bc
00000330: cc31 4dbd e2a3 afbd 6924 d5bc 6aa7 d2bc
00000340: 4ae6 283c 0e7f d83c c568 45bd 1f9f 91bc
00000350: c029 13bc 78bd 073c 0560 3ebd a5d8 00be
00000360: b348 81bd 77a5 9cbd 9a86 23bd 96c8 13bd
00000370: e584 1f3d 2b93 783d 5d0f b73c 8bd8 b13c
00000380: f247 bc3c 56df 48bd ec82 f1bc 6b9c 1ebd
00000390: c116 00bd 5e1c 343d 3006 e1bc cb08 483d
000003a0: a142 c93b e3b5 45bd f3e2 95bd a473 4fbc
000003b0: 841b 04bd 6682 6dbd 20b4 f0bd aa3c eabb
000003c0: 81eb 53bc 8d3a 4ebd 7183 51bd 1e68 78ba
000003d0: 7cdc 443d 219e 373d 8662 863c 3b5e 003d
000003e0: b7e0 7f3d 05ec 89bc 58d3 8e3d 78e5 efbd
000003f0: 4690 a7bc e25d 09bd b018 32bd 0825 febc

embedder.1.0.bias f4 [64]
-0.010125631 -0.005882567 0.0044803927 0.042509794 0.014748567 0.038584344 0.009711616 -0.044815693
-0.011976145 0.042535502 -0.035136066 0.008520709 0.033523187 -0.013536192 -0.007934053 -0.022536356
-0.023903025 -0.008935702 -0.0032329895 -0.015799563 0.040202715 0.022418192 0.03673219 0.02333349
0.025221528 0.032799575 -0.009207623 -0.014735355 -0.040516533 0.034254726 -0.007986859 0.00398544
0.00766991 0.0052938685 0.03946185 0.02097177 -0.042443912 -0.018438045 0.015107623 0.03209158
-0.012882961 0.0036147765 -0.01715061 -0.008669339 -0.012201905 0.00852614 0.0452219 0.01764059
0.023585811 0.03247906 -0.03913418 0.033773918 0.021368166 -0.038016886 -0.020066682 -0.021450035
-0.010598948 0.02863733 -0.007153884 -0.012954625 -0.04252704 -0.015457666 0.0016341821 0.0036314891
00000000: f9e5 25bc 8cc2 c0bb 42d0 923b c01e 2e3d
00000010: f9a3 713c 9e0a 1e3d 781d 1f3c a990 37bd
00000020: 9837 44bc b539 2e3d d6ea 0fbd 729a 0b3c
00000030: 9c4f 093d e7c6 5dbc d5fd 01bc 2a9e b8bc
00000040: 47d0 c3bc 0d67 12bc 90e0 53bb 166e 81bc
00000050: 9aab 243d 5ba6 b73c 7e74 163d e025 bf3c
00000060: 619d ce3c d958 063d 92db 16bc 8f6c 71bc
00000070: aaf4 25bd af4e 0c3d 51db 02bc 4b98 823b
00000080: de53 fb3b 3078 ad3b c0a2 213d fdcc ab3c
00000090: abd9 2dbd 620b 97bc f785 773c 7672 033d
000000a0: 0e13 53bc e3e5 6c3b 707f 8cbc d809 0ebc
000000b0: 80ea 47bc 39b1 0b3c 993a 393d 0083 903c
000000c0: 0837 c13c c308 053d 294b 20bd 8556 0a3d
000000d0: 4b0c af3c 98b7 1bbd e262 a4bc fcb7 afbc
000000e0: 36a7 2dbc d598 ea3c 216b eabb a33f 54bc
000000f0: d530 2ebd 2642 7dbc 0d32 d63a 47fe 6d3b

embedder.1.1.weight f4 [64]
1.1301594 1.0748779 0.85205185 1.1009247 0.99099123 1.1817083 1.0417147 0.9580994
0.93778354 1.0561827 1.0914721 1.006725 1.1474861 1.1399041 0.9502661 1.126812
1.1483617 1.0549258 0.9983322 0.8750793 0.95595443 1.1908559 0.9810381 0.8560814
0.7898928 0.8041819 0.9003295 0.87058496 1.0037934 0.9322502 1.1479449 1.0573164
1.0393302 1.0356917 0.9079516 1.0974011 1.1040158 0.9946608 0.93021977 0.98338044
0.889914 0.86952376 1.0181361 0.915682 0.82961005 0.97073185 1.081849 0.9463123
1.0347286 1.0508595 0.8852703 0.9277349 0.8596284 1.0150905 0.9873004 1.048547
1.0020324 0.82955563 1.0532161 1.2603426 1.0104786 0.8802134 1.4639179 0.8665399
00000000: 10a9 903f 9995 893f 1220 5a3f 1aeb 8c3f
00000010: 9ab1 7d3f 3842 973f e856 853f 0146 753f
00000020: 9512 703f ff30 873f 5cb5 8b3f 5ddc 803f
00000030: d3e0 923f 61e8 913f a444 733f 603b 903f
00000040: 84fd 923f cf07 873f b392 7f3f 3205 603f
00000050: 6eb9 743f f76d 983f 5025 7b3f 2728 5b3f
00000060: 6a36 4a3f ddde 4d3f fe7b 663f a8de 5e3f
00000070: 4d7c 803f f3a7 6e3f dcef 923f 2556 873f
00000080: c608 853f 8c91 843f 846f 683f a477 8c3f
00000090: 6450 8d3f 17a2 7e3f e222 6e3f d2be 7b3f
000000a0: 67d1 633f 1c99 5e3f 4952 823f 236a 6a3f
000000b0: 5361 543f e281 783f 077a 8a3f 8641 723f
000000c0: fd71 843f 9082 863f 13a1 623f 0980 6d3f
000000d0: 9b10 5c3f 7cee 813f b8bf 7c3f ca36 863f
000000e0: 9942 803f c25d 543f c9cf 863f e852 a13f
000000f0: 5d57 813f aa55 613f a961 bb3f 8fd5 5d3f

embedder.1.1.bias f4 [64]
-0.061082263 -0.26017427 -0.3915536 -0.13356759 -0.18689837 -0.3107948 -0.10369267 0.06773125
-0.28313836 -0.1387493 -0.16432126 -0.04679507 -0.29184607 -0.14807908 -0.21980171 -0.23522529
0.039217006 -0.3175217 -0.101001956 -0.3106906 -0.22670732 -0.028170854 -0.14672151 -0.29366907
-0.23099177 -0.1985446 -0.057885036 -0.2765527 -0.07994496 -0.14496097 -0.2768432 -0.23981929
-0.14779289 -0.1606478 -0.06293094 -0.10840554 -0.08582573 -0.29341197 -0.13729662 -0.24963671
-0.23406321 -0.12039048 -0.36552915 -0.23080358 -0.07285889 -0.038348723 -0.086726665 0.025925044
-0.11824953 -0.13032144 -0.09276626 -0.18131632 -0.29823643 -0.191627 -0.03614786 -0.0465051
-0.014976085 -0.020770758 -0.21198691 0.16076471 -0.25847253 -0.0018225159 -0.16766448 -0.23015858
00000000: 6531 7abd 9035 85be b779 c8be f1c5 08be
00000010: 4962 3fbe 7f20 9fbe d35c d4bd aeb6 8a3d
00000020: 83f7 90be 4c14 0ebe d543 28be 30ac 3fbd
00000030: d96c 95be 0ba2 17be b313 61be e6de 70be
00000040: 03a2 203d 3492 a2be 1dda cebd d712 9fbe
00000050: f725 68be 90c6 e6bc 2a3e 16be cb5b 96be
00000060: 1b89 6cbe 474f 4bbe dc18 6dbd 5198 8dbe
00000070: 2fba a3bd a670 14be 64be 8dbe 3093 75be
00000080: 0557 17be db80 24be f0e1 80bd b903 debd
00000090: 66c5 afbd 183a 96be 7c97 0cbe c4a0 7fbe
000000a0: 44ae 6fbe 498f f6bd a326 bbbe c657 6cbe
000000b0: 0b37 95bd 8d13 1dbd c09d b1bd c260 d43c
000000c0: cf2c f2bd fc72 05be 3dfc bdbd fcaa 39be
000000d0: 72b2 98be de39 44be c70f 14bd 227c 3ebd
000000e0: 415e 75bc 7027 aabc 1913 59be 819f 243e
000000f0: 8356 84be 7ce1 eeba 3db0 2bbe b1ae 6bbe

embedder.1.1.running_mean f4 [64]
-0.7070395 -0.53722227 1.0581491 0.646153 -1.7957556 -0.690552 -1.127605 -0.2841931
-0.77817804 -0.5330117 -0.14283128 0.75855476 -3.624112 -3.2685397 -0.6322908 -2.5906177
0.03139773 0.45592898 -0.35222358 -0.7855781 -0.9778766 -4.677628 1.520553 1.2764096
1.1913157 1.859369 -0.8795762 0.13205104 -0.96465325 0.4779602 -2.6747396 -1.9815854
-0.9978726 -0.63253385 -1.337496 0.40454662 0.8009487 1.8808987 -0.5098938 0.7328316
1.3540395 -0.013296029 1.1695337 -0.10675895 0.5396029 -0.76118284 -1.0273682 -0.6898523
-1.0925987 -0.7396481 0.8656075 -1.2818732 -0.3457165 0.24465062 -0.3068079 -0.6008532
-0.9036657 0.6922794 -0.463825 1.7639651 -1.0086402 -1.0720189 -5.3486233 0.38414666
00000000: 8a00 35bf 6687 09bf 6e71 873f 486a 253f
00000010: 52db e5bf 04c8 30bf 5c55 90bf c281 91be
00000020: ad36 47bf 7473 08bf 5d42 12be a530 423f
00000030: 73f1 67c0 c12f 51c0 cfdd 21bf aecc 25c0
00000040: e89a 003d 866f e93e a656 b4be a51b 49bf
00000050: 1f56 7abf 21af 95c0 7ba1 c23f 6461 a33f
00000060: 087d 983f ceff ed3f e82b 61bf 6338 073e
00000070: 84f3 76bf 33b7 f43e ef2e 2bc0 97a4 fdbf
00000080: 9474 7fbf bded 21bf 1233 abbf bc20 cf3e
00000090: f90a 4d3f 4ac1 f03f 6688 02bf da9a 3b3f
000000a0: 2b51 ad3f 96d7 59bc 48b3 953f 70a4 dabd
000000b0: 6a23 0a3f e1dc 42bf cd80 83bf 299a 30bf
000000c0: 46da 8bbf 9459 3dbf 7498 5d3f 6c14 a4bf
000000d0: c101 b1be b185 7a3e ed15 9dbe 84d1 19bf
000000e0: a356 67bf 3939 313f 787a edbe 9cc9 e13f
000000f0: 1f1b 81bf ea37 89bf ec27 abc0 dfae c43e

embedder.1.1.running_var f4 [64]
3.9580734 3.3125808 1.7431152 1.166023 2.2862637 2.1670325 2.1815295 1.0991734
1.8573786 1.5395341 1.8657236 1.143024 3.290861 3.582605 1.6592824 4.929428
2.991679 0.94252574 2.4397168 2.2125216 1.8043034 5.1109195 1.0598092 2.4731221
2.3868518 3.4084754 2.3568633 1.1824428 3.385552 2.2702951 3.2301276 3.2961326
3.2704196 1.7555792 1.2467693 1.3561485 1.8806878 0.7073065 1.6767821 1.0949107
2.220364 1.5259066 1.0087847 1.6406329 1.4765532 1.852821 2.2499208 1.9192127
3.591712 3.0971606 2.1140049 1.4993535 1.2125833 1.0556054 1.8593652 2.4691992
2.5771496 1.3895481 2.1292057 4.3774905 4.474102 1.1204035 2.3791752 2.1535258
00000000: 1351 7d40 5301 5440 661e df3f 3e40 953f
00000010: 2552 1240 a9b0 0a40 2e9e 0b40 b7b1 8c3f
00000020: 95be ed3f 740f c53f 08d0 ee3f 9c4e 923f
00000030: 779d 5240 6649 6540 5e63 d43f e0bd 9d40
00000040: ab77 3f40 5e49 713f 5224 1c40 f499 0d40
00000050: 6af3 e63f a78c a340 d4a7 873f a247 1e40
00000060: 2ec2 1840 7624 5a40 d9d6 1640 495a 973f
00000070: e2ac 5840 844c 1140 69ba 4e40 d6f3 5240
00000080: 8e4e 5140 d2b6 e03f 2396 9f3f 4696 ad3f
00000090: 61ba f03f 0a12 353f cca0 d63f 0926 8c3f
000000a0: 721a 0e40 e850 c33f db1f 813f 4200 d23f
000000b0: b2ff bc3f 3d29 ed3f b4fe 0f40 c3a8 f53f
000000c0: 9cde 6540 e137 4640 db4b 0740 d1ea bf3f
000000d0: ee35 9b3f 141e 873f aeff ed3f 5c07 1e40
000000e0: 05f0 2440 b6dc b13f e844 0840 6714 8c40
000000f0: d82b 8f40 6269 8f3f 6844 1840 5ed3 0940

embedder.2.0.weight f4 [64, 64, 3, 3]
0.0009224224 -0.01219383 -0.10698827 -0.056311592 0.06922953 0.06222122 -0.066781856 0.04592656
-0.019784864 0.0015630678 0.012271016 -0.020073105 0.02186315 0.058746785 -0.050182927 -0.05919829
-0.018787887 -0.07338222 0.04603154 0.04368282 -0.02882792 0.033627067 0.0094364965 -0.05292341
-0.0978655 -0.050188046 -0.026074676 -0.022761948 0.07097097 0.027554803 -0.14935036 -0.046470724
0.005802263 -0.06150122 0.06509497 -0.04171052 0.037270848 -0.05187173 -0.10594999 0.08442743
0.013945777 -0.036185957 -0.05785732 -0.09803258 0.012777881 -0.017394846 -0.01589678 -0.029609391
-0.08845587 -0.009503358 -0.08523127 -0.04175528 -0.06100155 0.047618017 0.08297323 0.0044228616
0.065188155 0.06811338 0.060055412 0.011186932 0.060961045 0.07094332 -0.027294721 0.060937665
0.04261722 0.028302213 0.0031486328 0.031932727 -0.02457965 -0.036327172 -0.056100693 -0.0010861788
-0.0060382974 -0.04647748 -0.06631247 -0.035793837 -0.0118646 0.0042615915 -0.017215485 -0.0018685937
-0.002933241 0.007228048 -0.028906189 -0.09433773 0.005477609 -0.10878032 -0.16107245 -0.06638398
-0.10971864 -0.0049683624 0.021383196 -0.0016463958 0.08479723 -0.0019613781 0.06681007 0.055911407
-0.025217146 0.09057192 0.042195328 0.023028137 -0.040888846 -0.08696543 -0.024507662 -0.00058411405
-0.08091693 0.004006788 0.044436425 0.004668593 -0.053896815 -0.019280158 -0.041450974 0.0080700675
0.0963242 0.10017329 -0.082958326 -0.011681988 0.034606397 0.051607676 0.010950605 -0.09694043
0.021959318 0.130708 0.036614627 0.037325446 0.018613717 0.012780283 0.011779863 -0.0045230845
-0.0122244395 0.0021870045 -0.01187342 -0.0614952 0.0072652274 -0.13931131 -0.0700048 -0.010047123
-0.055415463 0.10935632 -0.032058552 0.11954658 0.03240247 0.044540193 0.02011852 -0.025764473
0.018599145 -0.103274964 -0.15107344 -0.12163531 -0.016391648 -0.013894999 -0.055178314 -0.018974382
-0.03482319 -0.038512573 -0.016370533 -0.08087904 -0.06758995 -0.055628907 -0.025406756 -0.076288775
-0.07939985 -0.02627693 -0.008181945 0.015741272 0.015073216 -0.004747148 0.08579235 0.068367675
-0.013219547 0.054723866 -0.035915952 0.124190055 -0.017997906 -0.10199453 0.011746732 -0.09888387
-0.13194872 -0.02326034 -0.05934313 -0.04333421 -0.016311938 0.006849676 -0.011932197 0.031056046
0.0034706562 0.0047723656 0.06926955 -0.0049739243 -0.034134213 0.070243694 -0.12468077 -0.14890742
-0.08217471 0.04710745 -0.023520745 -0.0701091 0.009109048 -0.032727506 0.048418056 0.03532351
-0.10346536 -0.058250725 0.011021521 -0.033001836 -0.10303676 0.0069577037 -0.019200075 0.118731536
0.030511817 -0.088441156 0.037643522 -0.014865163 -0.12976576 -0.022127533 -0.039188065 -0.047943093
-0.03848288 -0.0038314909 -0.023580408 -0.0008305435 0.04167122 -0.021207295 -0.029411701 0.053794082
-0.023028983 -0.0019029622 0.022408819 -0.023161417 0.03953534 0.017079968 -0.024793854 0.020005642
0.02756584 0.007876991 0.010745414 0.011315203 0.030809045 -0.03637105 0.046403408 0.011116951
-0.045722738 -0.031390313 -0.05871551 -0.021686079 0.0109300995 -0.03737582 -0.007143884 0.0312666
-0.12028942 -0.077756576 -0.0035984255 0.0316234 0.033851225 -0.03467177 0.035699565 0.05019964
00000000: b8ce 713a a1c8 47bc ab1c dbbd fca6 66bd
00000010: 36c8 8d3d aedb 7e3d edc4 88bd 7d1d 3c3d
00000020: de13 a2bc dadf cc3a 5f0c 493c 5a70 a4bc
00000030: 591a b33c 78a0 703d 9d8c 4dbd e879 72bd
00000040: 0ee9 99bc 6b49 96bd 918b 3c3d c2ec 323d
00000050: 8828 ecbc 89bc 093d 899b 1a3c 38c6 58bd
00000060: b56d c8bd fb91 4dbd 8f9a d5bc 4477 babc
00000070: 3a59 913d 9cba e13c 4def 18be 1658 3ebd
00000080: e920 be3b b4e8 7bbd 8350 853d a6d8 2abd
00000090: 51a9 183d 7377 54bd 4ffc d8bd 4ae8 ac3d
000000a0: d47c 643c ba37 14bd ccfb 6cbd 4ec5 c8bd
000000b0: 515a 513c a37f 8ebc f739 82bc 658f f2bc
000000c0: 5a28 b5bd f9b3 1bbc bb8d aebd 9607 2bbd
000000d0: c3dc 79bd 1c0b 433d deed a93d a7ed 903b
000000e0: 5e81 853d 077f 8b3d aafc 753d 6549 373c
000000f0: 4ab2 793d bb4a 913d 2e99 dfbc c699 793d
00000100: 658f 2e3d 0bda e73c 4b59 4e3b e4cb 023d
00000110: 435b c9bc cdcb 14bd d7c9 65bd 1d5e 8eba
00000120: e9dc c5bb 2c5f 3ebd d5ce 87bd 8f9c 12bd
00000130: bd63 42bc d2a4 8b3b 7d07 8dbc 9aeb f4ba
00000140: 9e3b 40bb 43d9 ec3b accc ecbc 2434 c1bd
00000150: 847d b33b 37c8 debd 2df0 24be 53f4 87bd
00000160: 2bb4 e0bd a5cd a2bb d02b af3c e0cb d7ba
00000170: 2caa ad3d 778a 00bb b8d3 883d 5c03 653d
00000180: 3094 cebc c57d b93d 02d5 2c3d 81a5 bc3c
00000190: 107b 27bd ee1a b2bd 4bc4 c8bc 3b1f 19ba
000001a0: c7b7 a5bd 604b 833b f802 363d fffa 983b
000001b0: e8c2 5cbd 6cf1 9dbc 7fc8 29bd 5138 043c
000001c0: 9f45 c53d a727 cd3d 0ee6 a9bd cf65 3fbc
000001d0: 70bf 0d3d 9262 533d 2b6a 333c b488 c6bd
000001e0: 07e4 b33c 51d8 053e 38f9 153d 91e2 183d
000001f0: cb7b 983c 6464 513c 5400 413c 6236 94bb
00000200: 0449 48bc d953 0f3b bc88 42bc 64e2 7bbd
00000210: 2511 ee3b a0a7 0ebe ad5e 8fbd b09c 24bc
00000220: 53fb 62bd 35f6 df3d d44f 03bd d6d4 f43d
00000230: 74b8 043d c76f 363d 98cf a43c 0410 d3bc
00000240: 3c5d 983c d381 d3bd ffb2 1abe ef1b f9bd
00000250: c747 86bc daa7 63bc a802 62bd 2a70 9bbc
00000260: c3a2 0ebd 5cbf 1dbd 7f1b 86bc e9a3 a5bd
00000270: 9a6c 8abd 23db 63bd d421 d0bc 4a3d 9cbd
00000280: 639c a2bd b742 d7bc 910d 06bc d7f3 803c
00000290: a6f5 763c f78d 9bbb e6b3 af3d 5a04 8c3d
000002a0: cd96 58bc 2226 603d 9b1c 13bd 5b57 fe3d
000002b0: 5870 93bc 82e2 d0bd 5d75 403c a083 cabd
000002c0: 911d 07be 788c bebc c811 73bd 367f 31bd
000002d0: 9da0 85bc 3f73 e03b 437f 43bc 4069 fe3c
000002e0: f373 633b 8161 9c3b 32dd 8d3d 4dfc a2bb
000002f0: 51d0 0bbd eddb 8f3d a258 ffbd 307b 18be
00000300: 374b a8bd bef3 403d 94ae c0bc 5c95 8fbd
00000310: 1e3e 153c 470d 06bd 0352 463d 63af 103d
00000320: a6e5 d3bd 5098 6ebd 9c93 343c ef2c 07bd
00000330: f004 d3bd 73fd e33b 7a49 9dbc 8529 f33d
00000340: ebf3 f93c a320 b5bd 1830 1a3d 038d 73bc
00000350: 51e1 04be cd44 b5bc aa83 20bd fa5f 44bd
00000360: 39a0 1dbd c019 7bbb b32b c1bc d5b8 59ba
00000370: 71af 2a3d ecba adbc cff0 f0bc 2f57 5c3d
00000380: 47a7 bcbc d16c f9ba b392 b73c 03bd bdbc
00000390: cfef 213d 4aeb 8b3c 7b1c cbbc dfe2 a33c
000003a0: c2d1 e13c 7f0e 013c 880d 303c 6763 393c
000003b0: 4063 fc3c cff9 14bd 8011 3e3d df23 363c
000003c0: c447 3bbd 2193 00bd ad7f 70bd 01a7 b1bc
000003d0: 2914 333c 6317 19bd 3e17 eabb 6811 003d
000003e0: 4d5a f6bd d73e 9fbd 90d3 6bbb 8a87 013d
000003f0: 95a7 0a3d fc03 0ebd b539 123d 239e 4d3d

embedder.2.0.bias f4 [64]
0.041743945 0.03147941 -0.022405308 -0.02902212 0.0014473741 0.040444806 0.04263166 0.02006
-0.01516654 -0.018404651 0.01591915 -0.0068006115 -0.018133877 -0.009799852 -0.0316457 0.018528862
-0.023781668 0.026628554 0.007607505 0.034128174 0.020352308 -0.036638796 -0.04079055 0.02794584
-0.030692583 -0.00201763 0.04072348 -0.0039490284 -0.035289183 0.015317651 0.010573239 -0.00699347
-0.027220849 0.009277942 -0.02813001 -0.018594295 0.022732284 0.0025275531 0.007830198 -0.013207588
0.02252153 -0.019080793 -0.041147742 0.0025563901 0.0038956644 0.040065695 -0.004255891 0.015015593
0.03488267 -0.012023482 -0.010395743 0.034229647 -0.0039927172 -0.03697953 0.016676243 -0.01633485
0.03333855 0.011517318 0.021257084 0.010739647 0.015553483 -0.030018888 0.020270815 -0.020251557
00000000: b3fb 2a3d 8ef0 003d 568b b7bc ccbf edbc
00000010: d1b5 bd3a 74a9 253d 899e 2e3d de54 a43c
00000020: 147d 78bc 5ac5 96bc e168 823c aad7 debb
00000030: 7f8d 94bc 8f8f 20bc ec9e 01bd d7c9 973c
00000040: c6d1 c2bc 2024 da3c 6148 f93b fcc9 0b3d
00000050: e2b9 a63c 9012 16bd fe13 27bd adee e43c
00000060: 036f fbbc 373a 04bb aacd 263d da66 81bb
00000070: 648b 10bd e3f6 7a3c 613b 2d3c 7a29 e5bb
00000080: 42fe debc 8202 183c e870 e6bc 1053 98bc
00000090: 0e39 ba3c 4ea5 253b 3b4a 003c a464 58bc
000000a0: 127f b83c 534f 9cbc 898a 28bd 1c89 273b
000000b0: 674e 7f3b ed1b 243d 0075 8bbb f603 763c
000000c0: 21e1 0e3d 23fe 44bc e852 2abc 6334 0c3d
000000d0: 57d5 82bb d977 17bd 9e9c 883c aad0 85bc
000000e0: 018e 083d 22b3 3c3c 5623 ae3c 58f5 2f3c
000000f0: 09d4 7e3c 2cea f5bc fb0e a63c 98e6 a5bc

embedder.2.1.weight f4 [64]
1.1101071 0.9333882 1.0697145 1.0439258 0.9841494 1.0146697 0.9929817 1.0078868
0.8975984 0.9046629 1.0232286 0.8413165 0.99507976 0.93068886 0.9675539 0.8805377
1.0262816 0.8533909 1.0109975 1.1147835 0.9858896 1.0572655 1.1390691 1.0693517
0.9777769 0.9859301 0.8726229 0.95836 0.8519699 0.8348381 0.98539543 0.88262457
0.8544048 0.8657813 1.1440201 0.8968234 1.0432353 1.020769 1.0535426 0.9480543
0.8274599 1.0784018 1.0841748 1.0437534 0.874697 0.9263058 0.93171495 0.97334677
0.9440848 1.0252812 1.0846101 0.93811494 1.0675143 1.0534981 1.1045151 1.0970792
0.9615052 0.89385813 0.9043694 1.1014428 1.0738711 0.99224746 0.8316864 0.96127313
00000000: fd17 8e3f 87f2 6e3f 68ec 883f 5c9f 853f
00000010: 37f1 7b3f b2e0 813f 0c34 7e3f 6f02 813f
00000020: 02c9 653f fd97 673f 28f9 823f 8560 573f
00000030: 8cbd 7e3f a041 6e3f 9db1 773f eb6a 613f
00000040: 325d 833f d377 5a3f 5e68 813f 3ab1 8e3f
00000050: 4363 7c3f 7a54 873f 04cd 913f 84e0 883f
00000060: 964f 7a3f ea65 7c3f 3764 5f3f 1557 753f
00000070: b31a 5a3f f3b7 553f e042 7c3f aff3 613f
00000080: 46ba 5a3f d8a3 5d3f 406f 923f 3896 653f
00000090: bc88 853f 8fa8 823f 7cda 863f b0b3 723f
000000a0: 69d4 533f 1209 8a3f 3dc6 8a3f b699 853f
000000b0: 25ec 5f3f 6022 6d3f df84 6e3f 412d 793f
000000c0: 8baf 713f 6a3c 833f 81d4 8a3f 4d28 703f
000000d0: 4fa4 883f 07d9 863f c060 8d3f 176d 8c3f
000000e0: 3425 763f e3d3 643f c184 673f 14fc 8c3f
000000f0: 9c74 893f ee03 7e3f 66e9 543f ff15 763f

embedder.2.1.bias f4 [64]
-0.35103232 -0.35664278 -0.31044585 -0.35518378 -0.39766046 -0.31939882 -0.24538857 -0.29433304
-0.28407672 -0.19983178 -0.26039326 -0.3150184 -0.36298785 -0.1759853 -0.23525369 -0.11600438
-0.17393187 -0.19984196 -0.16313645 -0.30858317 -0.26154122 -0.31230995 -0.34675336 -0.46852517
-0.28078687 -0.1650193 -0.2480236 -0.15074202 -0.31973618 -0.21421053 -0.33145967 -0.23567109
-0.30883986 -0.29027903 -0.31607553 -0.30152777 -0.28249314 -0.2436105 -0.33519787 -0.2879234
-0.24614057 -0.21759866 -0.13127394 -0.32407707 -0.26330188 -0.27850306 -0.23900354 -0.17041413
-0.26082495 -0.32112518 -0.3397725 -0.3343505 -0.21686763 -0.42476964 -0.42423388 -0.13946219
-0.14099954 -0.16811553 -0.2633175 -0.20548417 -0.25389484 -0.303662 -0.20538858 -0.23339209
00000000: 82ba b3be e299 b6be c2f2 9ebe a6da b5be
00000010: 279a cbbe 3e88 a3be 2447 7bbe d2b2 96be
00000020: 8172 91be b4a0 4cbe 4452 85be 174a a1be
00000030: 8bd9 b9be 7e35 34be 58e6 70be b493 edbd
00000040: 321b 32be 5fa3 4cbe 3e0d 27be 9dfe 9dbe
00000050: bbe8 85be 17e7 9fbe a889 b1be 88e2 efbe
00000060: 4cc3 8fbe d2fa 28be e6f9 7dbe 1e5c 1abe
00000070: 76b4 a3be 015a 5bbe 15b5 a9be c353 71be
00000080: 4220 9ebe 749f 94be a7d4 a1be d961 9abe
00000090: f1a2 90be 0875 79be 0e9f abbe b26a 93be
000000a0: 460c 7cbe 2fd2 5ebe ad6c 06be 6eed a5be
000000b0: 81cf 86be f497 8ebe 58bd 74be 0b81 2ebe
000000c0: d98a 85be 856a a4be a9f6 adbe fd2f abbe
000000d0: 8c12 5ebe 687b d9be 2f35 d9be 2dcf 0ebe
000000e0: 2f62 10be 7a26 2cbe 8dd1 86be 716a 52be
000000f0: 81fe 81be 9679 9bbe 6251 52be 56fe 6ebe

embedder.2.1.running_mean f4 [64]
-2.7408097 -1.5810864 -0.28372833 -0.75723404 -1.8980324 -1.379701 -2.1199186 -0.61469805
-1.8748823 1.4650332 -1.7686653 -1.9630607 -1.6178564 -0.109829806 -1.6512079 1.4769597
-1.7332735 1.4583894 -0.5845286 -1.2488593 -0.164459 -1.8253596 -1.8989128 -2.3442698
-2.3513286 -0.6848796 -0.6161594 -1.6341635 1.2695327 1.6928587 -0.18337126 0.46227613
1.273095 1.688899 -1.2257879 -0.21659656 -2.5023088 -0.10830724 -2.7964165 -1.7046123
0.5809781 -0.7044555 -1.0345111 -1.4607953 -0.41501588 -0.9223054 0.23238501 -0.5972895
0.8434578 -1.0038177 -1.889928 -1.1414679 -1.0256183 -1.8238536 -1.6313249 -0.31042445
-0.74279404 -0.79736006 -1.3177633 -2.7407577 -2.5872397 -1.3216448 2.2661693 -1.0175896
00000000: 6d69 2fc0 0a61 cabf d744 91be 17da 41bf
00000010: baf2 f2bf 0b9a b0bf bfac 07c0 da5c 1dbf
00000020: 25fc efbf 3586 bb3f a063 e2bf 9345 fbbf
00000030: eb15 cfbf 73ee e0bd c85a d3bf 040d bd3f
00000040: e8db ddbf 81ac ba3f aba3 15bf 9fda 9fbf
00000050: f167 28be 62a5 e9bf 930f f3bf 8408 16c0
00000060: 2b7c 16c0 4554 2fbf 9fbc 1dbf 452c d1bf
00000070: 0c80 a23f 98af d83f adc5 3bbe 75af ec3e
00000080: c7f4 a23f d82d d83f 9ee6 9cbf 7dcb 5dbe
00000090: d425 20c0 30d0 ddbd 7df8 32c0 bc30 dabf
000000a0: fbba 143f 3257 34bf dc6a 84bf 57fb babf
000000b0: f67c d4be 351c 6cbf 56f6 6d3e f7e7 18bf
000000c0: daec 573f 197d 80bf 29e9 f1bf 9f1b 92bf
000000d0: 7647 83bf 0974 e9bf 41cf d0bf f4ef 9ebe
000000e0: c027 3ebf ca1f 4cbf 78ac a8bf 9368 2fc0
000000f0: 5695 25c0 a82b a9bf eb08 1140 6040 82bf

embedder.2.1.running_var f4 [64]
5.1240525 3.160652 4.598863 2.9322245 2.4538949 4.383528 3.4661057 2.7975862
3.1887853 4.222019 3.986274 1.7125895 2.9782326 4.5277696 2.546393 3.8074198
6.0545487 4.4094944 3.5426297 4.674594 2.6420107 5.0563946 5.4860563 2.7525063
3.8438354 2.774082 3.6329942 3.918605 3.095189 3.6061428 5.4832587 2.7113404
5.3826685 3.38863 6.090993 2.9333608 4.781654 4.191041 4.7933145 3.7751496
2.4322069 4.6645255 6.130498 4.309804 3.0141838 3.8491027 2.509255 5.860712
3.9597752 2.6331353 3.2076974 2.49083 7.0376134 4.264306 3.4049616 6.270677
3.5181932 2.717237 4.403264 6.0219927 5.735106 1.9943638 4.540145 2.9047132
00000000: 3df8 a340 1f48 4a40 e329 9340 91a9 3b40
00000010: 9d0c 1d40 dd45 8c40 add4 5d40 a70b 3340
00000020: 0f15 4c40 c81a 8740 1d1f 7f40 2236 db3f
00000030: 5d9b 3e40 7de3 9040 1af8 2240 c4ac 7340
00000040: ddbe c140 941a 8d40 72ba 6240 4696 9540
00000050: b416 2940 fccd a140 c68d af40 1029 3040
00000060: 6601 7640 8f8a 3140 fa82 6840 6dca 7a40
00000070: 9417 4640 0bcb 6640 db76 af40 9a86 2d40
00000080: d23e ac40 50df 5840 6ae9 c240 2fbc 3b40
00000090: 4f03 9940 021d 8640 d562 9940 0d9c 7140
000000a0: 47a9 1b40 cb43 9540 0a2d c440 eae9 8940
000000b0: 63e8 4040 b357 7640 a297 2040 f48a bb40
000000c0: f56c 7d40 4a85 2840 ea4a 4d40 c269 1f40
000000d0: 2134 e140 3275 8840 e4ea 5940 63a9 c840
000000e0: 142a 6140 36e7 2d40 8ae7 8c40 2ab4 c040
000000f0: fd85 b740 5047 ff3f de48 9140 d2e6 3940

embedder.3.0.weight f4 [64, 64, 3, 3]
0.050635844 0.009550681 -0.009082372 -0.004745006 0.092269294 0.035545133 0.04168653 0.11284432
0.1867102 -0.0029657974 -0.009198628 -0.05678628 0.01173681 -0.037336662 -0.02439393 -0.06605592
-0.032008942 0.056408025 -0.042983085 0.03988786 0.03880883 -0.013863371 0.08461811 0.06288748
0.0434968 0.05290533 0.0042858906 0.020223776 -0.00011887151 -0.003013887 0.04321994 0.026926523
-0.027864408 0.04256775 0.050095536 -0.034946304 0.03675526 0.043045487 0.079750426 0.032153003
-0.04280054 0.0741855 -0.012141047 0.014701153 -0.033402517 0.019956248 0.07177466 0.0550412
0.026950676 0.07990677 0.058967516 0.04628223 0.06061586 0.035390448 0.045662083 -0.0053079636
-0.022888394 0.0018169883 0.0077648573 -0.010719496 -0.0052925586 0.033123117 0.031149995 0.061499752
0.033524152 -0.055591773 0.08649784 0.030196134 0.04813842 -0.021391446 -0.031664103 0.020100519
-0.014029267 -0.0165252 -0.0028896444 0.04836358 -0.0011329993 0.046386827 0.0111799035 -0.022304703
-0.050161734 0.031809684 0.056799006 0.046361446 0.038879693 -0.061542656 0.009123833 -0.038161173
-0.015280843 -0.11000269 0.030173436 -0.024087487 -0.08042947 0.0625435 -0.090997264 -0.09820165
-0.009962952 -0.0318719 -0.066406555 0.03219797 0.033660345 0.02834834 -0.012098007 -0.01044288
0.0016811761 -0.007252214 -0.02642894 0.0068672784 0.03510521 0.082883365 0.13417609 0.050559826
0.06930285 0.10434678 -0.008436477 0.025096731 0.08327715 0.028173462 0.00083623664 0.0028380686
0.010352302 -0.003541394 -0.012751606 -0.019194117 -0.0030918808 -0.04325345 -0.046307568 -0.05025954
-0.03238681 -0.033796858 -0.02431027 0.051285505 0.020240787 0.025184458 0.028031934 -0.028036501
-0.06292991 -0.07416551 -0.009431128 -0.039175667 -0.084830575 -0.033746872 0.041249853 -0.08346934
0.031165695 0.07557623 -0.033362046 -0.010035845 -0.06768317 -0.1200017 -0.023696786 -0.13153403
-0.0020743064 0.015689401 -0.0071624066 -0.04014832 -0.10001859 -0.049491443 -0.01910423 -0.020938987
-0.0624263 -0.0023024739 0.028593777 0.04185076 0.06984122 -0.009678558 -0.02975003 -0.011228736
-0.040840108 -0.10244761 -0.06179309 -0.04612956 -0.0675611 0.007040302 -0.037204683 0.0018927421
0.02378711 -0.02729457 -0.043488897 -0.0020561693 0.01872403 0.014944482 0.06481383 0.03328684
0.026714811 0.014023044 0.025821764 0.0010800086 -0.004593841 0.00848793 0.03826349 -0.023732826
0.028407278 0.0005424724 0.067438565 -0.029291257 -0.10066421 0.019143147 -0.019990424 0.027503068
-0.016825225 -0.032237932 -0.03246379 0.036063492 0.024609769 0.0130030755 0.035570007 -0.018935412
-0.026109213 -0.035541438 -0.0120798005 -0.062103193 -0.009730556 0.017883427 -0.004953222 -0.035931624
0.084417775 -0.07601324 -0.03314839 0.005850849 -0.057897843 -0.019538336 0.007886992 0.041216377
-0.06479389 0.018475667 -0.056964096 0.022738772 0.02258908 0.0029502239 -0.013228796 -0.019161562
0.045125827 0.0097518945 -0.02382018 -0.06592803 0.08773298 -0.012814241 -0.029383952 0.0052647553
-0.008609548 -0.0438611 -0.01677001 0.050933667 -0.038710903 -0.018387893 -0.074170925 -0.06351295
-0.017184962 -0.008770817 0.022764308 -0.0460469 -0.024599006 0.040212773 0.046629846 0.018528894
00000000: 8867 4f3d 767a 1c3c 3bce 14bc ff7b 9bbb
00000010: aff7 bc3d c697 113d 7fbf 2a3d ec1a e73d
00000020: f530 3f3e d35d 42bb d8b5 16bc bb98 68bd
00000030: c04b 403c 54ee 18bd c7d5 c7bc 5448 87bd
00000040: cf1b 03bd 1a0c 673d 080f 30bd 7461 233d
00000050: 02f6 1e3d 3123 63bc 424c ad3d 27cb 803d
00000060: b329 323d 42b3 583d a870 8c3b 55ac a53c
00000070: a84a f9b8 a284 45bb 6407 313d 0395 dc3c
00000080: e643 e4bc 855b 2e3d fa30 4d3d db23 0fbd
00000090: af8c 163d 7750 303d 3154 a33d deb2 033d
000000a0: 9e4f 2fbd 91ee 973d 3eeb 46bc 1bdd 703c
000000b0: 14d1 08bd 497b a33c 98fe 923d e272 613d
000000c0: aac7 dc3c 29a6 a33d ec87 713d 7092 3d3d
000000d0: 5648 783d 93f5 103d 2a08 3b3d 6dee adbb
000000e0: 7180 bbbc 0328 ee3a 5870 fe3b d3a0 2fbc
000000f0: 336d adbb 1bac 073d 462e ff3c 2ae7 7b3d
00000100: 9f50 093d 33b4 63bd c825 b13d e25d f73c
00000110: cb2c 453d 1d3d afbc 38b2 01bd d8a9 a43c
00000120: 03db 65bc db5f 87bc 3060 3dbb e418 463d
00000130: 2681 94ba 1d00 3e3d ea2b 373c 5ab8 b6bc
00000140: 6476 4dbd df4a 023d 13a6 683d 80e5 3d3d
00000150: 5040 1f3d 2714 7cbd 217c 153c e44e 1cbd
00000160: 805c 7abc 1749 e1bd 482e f73c 1f53 c5bc
00000170: 35b8 a4bd ce16 803d c65c babd f21d c9bd
00000180: a63b 23bc 1c8c 02bd 2900 88bd 05e2 033d
00000190: 6edf 093d c73a e83c b836 46bc 9d18 2bbc
000001a0: e95a dc3a fba3 edbb 8181 d8bc e806 e13b
000001b0: 7bca 0f3d c1be a93d 7565 093e d217 4f3d
000001c0: a7ee 8d3d c4b3 d53d 2639 0abc a997 cd3c
000001d0: 368d aa3d 08cc e63c e436 5b3a e4fe 393b
000001e0: b49c 293c bb16 68bb 1dec 50bc fb3c 9dbc
000001f0: 27a1 4abb 882a 31bd 01ad 3dbd f3dc 4dbd
00000200: 08a8 04bd 936e 0abd 5526 c7bc c010 523d
00000210: 02d0 a53c a34f ce3c 3aa3 e53c ceac e5bc
00000220: 66e1 80bd 16e4 97bd 0585 1abc aa76 20bd
00000230: a7bb adbd 293a 0abd 9bf5 283d f9f1 aabd
00000240: 334f ff3c b6c7 9a3d a4a6 08bd 636d 24bc
00000250: 799d 8abd 74c3 f5bd c31f c2bc dbb0 06be
00000260: 16f1 07bb 0f87 803c 9fb2 eabb 9172 24bd
00000270: 8cd6 ccbd 8ab7 4abd 7980 9cbc 3d88 abbc
00000280: b8b2 7fbd 1ae5 16bb 7f3d ea3c b46b 2b3d
00000290: ea08 8f3d d192 1ebc 56b6 f3bc bbf8 37bc
000002a0: f547 27bd 0dd0 d1bd c01a 7dbd 59f2 3cbd
000002b0: 795d 8abd 55b2 e63b f063 18bd e315 f83a
000002c0: 2fdd c23c dd98 dfbc 6a21 32bd ccc0 06bb
000002d0: 2363 993c b3d9 743c 1dbd 843d c857 083d
000002e0: 05d9 da3c e9c0 653c 2a88 d33c 138f 8d3a
000002f0: ee87 96bb f510 0b3c 2dba 1c3d 586b c2bc
00000300: 61b6 e83c b534 0e3a 3b1d 8a3d 38f4 efbc
00000310: 0a29 cebd 17d2 9c3c f5c2 a3bc 1d4e e13c
00000320: 0ed5 89bc ec0b 04bd c0f8 04bd 50b7 133d
00000330: 6d9a c93c da0a 553c dbb1 113d 701e 9bbc
00000340: fde2 d5bc e693 11bd 5bea 45bc eb5f 7ebd
00000350: e96c 1fbc 4480 923c a34e a2bb 0a2d 13bd
00000360: 3ae3 ac3d d4ac 9bbd 9bc6 07bd 7bb8 bf3b
00000370: 4a26 6dbd dc0e a0bc 7138 013c 81d2 283d
00000380: a9b2 84bd 485a 973c 2f53 69bd a946 ba3c
00000390: bc0c b93c 8b58 413b 98bd 58bc b5f8 9cbc
000003a0: dcd5 383d 69c6 1f3c 8a22 c3bc 4605 87bd
000003b0: 59ad b33d d3f2 51bc 9db6 f0bc f883 ac3b
000003c0: 100f 0dbc b2a7 33bd 4361 89bc d29f 503d
000003d0: 538f 1ebd 35a2 96bc ede6 97bd 1413 82bd
000003e0: 7ac7 8cbc 79b3 0fbc 377c ba3c ad9b 3cbd
000003f0: db83 c9bc 26b6 243d f0fe 3e3d e8c9 973c

embedder.3.0.bias f4 [64]
-0.038461793 -0.025168747 -0.026046956 0.030905845 0.009251684 -0.0105472505 0.022199877 0.026297323
-0.028201934 -0.0003733581 -0.017528381 -0.03878905 -0.038272634 7.379444e-05 0.009219789 0.037190422
-0.039315443 -0.015500161 -0.012276372 0.0063569555 0.029285638 0.019935183 -0.035930227 -0.029145587
0.015386863 -0.00066757936 0.02611932 0.021929322 -0.04008958 0.029626548 0.03730379 0.0138410535
-0.009351652 -0.01417489 -0.011652565 -0.037643813 -0.006937514 -0.020614905 0.0064749112 -0.034197725
-0.01846636 -0.010422205 -0.011035597 -0.023431206 0.02123404 0.0328352 0.022664543 0.013621958
0.013147045 -0.025684673 -0.031061452 0.023493808 0.037161976 0.034215912 0.0021442857 0.013545364
0.015323439 0.007968297 -0.014612326 -0.018476436 0.0120709045 0.02987549 -0.03864613 -0.017210288
00000000: 1d8a 1dbd b02e cebc 6d60 d5bc 412e fd3c
00000010: 6094 173c 60ce 2cbc 84dc b53c 7c6d d73c
00000020: be07 e7bc 47bf c3b9 ae97 8fbc 44e1 1ebd
00000030: c4c3 1cbd 17c2 9a38 990e 173c fc54 183d
00000040: 3b09 21bd 63f4 7dbc d622 49bc 024e d03b
00000050: 6fe8 ef3c 1c4f a33c 932b 13bd bac2 eebc
00000060: 2e19 7c3c 7e00 2fba 2ff8 d53c 1fa5 b33c
00000070: f934 24bd 60b3 f23c dccb 183d 96c5 623c
00000080: ac37 19bc cc3d 68bc 66ea 3ebc 6630 1abd
00000090: 1654 e3bb 97e0 a8bc 7e2b d43b ea12 0cbd
000000a0: c446 97bc e5c1 2abc a6ce 34bc cdf2 bfbc
000000b0: 02f3 ad3c 347e 063d feaa b93c a22e 5f3c
000000c0: b466 573c aa68 d2bc 9674 febc 1676 c03c
000000d0: 2837 183d fc25 0c3d 2587 0c3b 60ed 5d3c
000000e0: 290f 7b3c 768d 023c 8a68 6fbc e55b 97bc
000000f0: 0bc5 453c 72bd f43c 684b 1ebd 97fc 8cbc
